…
 eps: 0.00      testing loss: 4.99e-01     testing accuracy: 84.72      acc retention: 100.01   
Files already downloaded and verified

 eps: 0.01      testing loss: 4.99e-01     testing accuracy: 84.79      acc retention: 100.09   
Files already downloaded and verified

 eps: 0.03      testing loss: 5.19e-01     testing accuracy: 84.10      acc retention: 99.28    
Files already downloaded and verified

 eps: 0.10      testing loss: 7.79e-01     testing accuracy: 78.02      acc retention: 92.10    
RKNet(
  (dynamicBlocks): ModuleList(
    (0): rk4(
      (controlLayers): ModuleList(
        (0): DoubleSymLayer(
          (conv): Conv2d(16, 16, kernel_size=(3, 3), stride=(1, 1), padding=(1, 1))
          (act): ReLU()
          (normLayer): TvNorm()
          (convt): ConvTranspose2d(16, 16, kernel_size=(3, 3), stride=(1, 1), padding=(1, 1))
        )
        (1): DoubleSymLayer(
          (conv): Conv2d(16, 16, kernel_size=(3, 3), stride=(1, 1), padding=(1, 1))
          (act): ReLU()
          (normLayer): TvNorm()
          (convt): ConvTranspose2d(16, 16, kernel_size=(3, 3), stride=(1, 1), padding=(1, 1))
        )
        (2): DoubleSymLayer(
          (conv): Conv2d(16, 16, kernel_size=(3, 3), stride=(1, 1), padding=(1, 1))
          (act): ReLU()
          (normLayer): TvNorm()
          (convt): ConvTranspose2d(16, 16, kernel_size=(3, 3), stride=(1, 1), padding=(1, 1))
        )
        (3): DoubleSymLayer(
          (conv): Conv2d(16, 16, kernel_size=(3, 3), stride=(1, 1), padding=(1, 1))
          (act): ReLU()
          (normLayer): TvNorm()
          (convt): ConvTranspose2d(16, 16, kernel_size=(3, 3), stride=(1, 1), padding=(1, 1))
        )
        (4): DoubleSymLayer(
          (conv): Conv2d(16, 16, kernel_size=(3, 3), stride=(1, 1), padding=(1, 1))
          (act): ReLU()
          (normLayer): TvNorm()
          (convt): ConvTranspose2d(16, 16, kernel_size=(3, 3), stride=(1, 1), padding=(1, 1))
        )
      )
    )
    (1): rk4(
      (controlLayers): ModuleList(
        (0): DoubleSymLayer(
          (conv): Conv2d(32, 32, kernel_size=(3, 3), stride=(1, 1), padding=(1, 1))
          (act): ReLU()
          (normLayer): TvNorm()
          (convt): ConvTranspose2d(32, 32, kernel_size=(3, 3), stride=(1, 1), padding=(1, 1))
        )
        (1): DoubleSymLayer(
          (conv): Conv2d(32, 32, kernel_size=(3, 3), stride=(1, 1), padding=(1, 1))
          (act): ReLU()
          (normLayer): TvNorm()
          (convt): ConvTranspose2d(32, 32, kernel_size=(3, 3), stride=(1, 1), padding=(1, 1))
        )
        (2): DoubleSymLayer(
          (conv): Conv2d(32, 32, kernel_size=(3, 3), stride=(1, 1), padding=(1, 1))
          (act): ReLU()
          (normLayer): TvNorm()
          (convt): ConvTranspose2d(32, 32, kernel_size=(3, 3), stride=(1, 1), padding=(1, 1))
        )
        (3): DoubleSymLayer(
          (conv): Conv2d(32, 32, kernel_size=(3, 3), stride=(1, 1), padding=(1, 1))
          (act): ReLU()
          (normLayer): TvNorm()
          (convt): ConvTranspose2d(32, 32, kernel_size=(3, 3), stride=(1, 1), padding=(1, 1))
        )
        (4): DoubleSymLayer(
          (conv): Conv2d(32, 32, kernel_size=(3, 3), stride=(1, 1), padding=(1, 1))
          (act): ReLU()
          (normLayer): TvNorm()
          (convt): ConvTranspose2d(32, 32, kernel_size=(3, 3), stride=(1, 1), padding=(1, 1))
        )
      )
    )
    (2): rk4(
      (controlLayers): ModuleList(
        (0): DoubleSymLayer(
          (conv): Conv2d(64, 64, kernel_size=(3, 3), stride=(1, 1), padding=(1, 1))
          (act): ReLU()
          (normLayer): TvNorm()
          (convt): ConvTranspose2d(64, 64, kernel_size=(3, 3), stride=(1, 1), padding=(1, 1))
        )
        (1): DoubleSymLayer(
          (conv): Conv2d(64, 64, kernel_size=(3, 3), stride=(1, 1), padding=(1, 1))
          (act): ReLU()
          (normLayer): TvNorm()
          (convt): ConvTranspose2d(64, 64, kernel_size=(3, 3), stride=(1, 1), padding=(1, 1))
        )
        (2): DoubleSymLayer(
          (conv): Conv2d(64, 64, kernel_size=(3, 3), stride=(1, 1), padding=(1, 1))
          (act): ReLU()
          (normLayer): TvNorm()
          (convt): ConvTranspose2d(64, 64, kernel_size=(3, 3), stride=(1, 1), padding=(1, 1))
        )
        (3): DoubleSymLayer(
          (conv): Conv2d(64, 64, kernel_size=(3, 3), stride=(1, 1), padding=(1, 1))
          (act): ReLU()
          (normLayer): TvNorm()
          (convt): ConvTranspose2d(64, 64, kernel_size=(3, 3), stride=(1, 1), padding=(1, 1))
        )
        (4): DoubleSymLayer(
          (conv): Conv2d(64, 64, kernel_size=(3, 3), stride=(1, 1), padding=(1, 1))
          (act): ReLU()
          (normLayer): TvNorm()
          (convt): ConvTranspose2d(64, 64, kernel_size=(3, 3), stride=(1, 1), padding=(1, 1))
        )
      )
    )
  )
  (connectors): ModuleList(
    (0): ConnectingLayer(
      (conv): Conv2d(16, 32, kernel_size=(1, 1), stride=(1, 1))
      (act): ReLU()
      (normLayer): BatchNorm2d(32, eps=0.0001, momentum=0.1, affine=True, track_running_stats=True)
    )
    (1): ConnectingLayer(
      (conv): Conv2d(32, 64, kernel_size=(1, 1), stride=(1, 1))
      (act): ReLU()
      (normLayer): BatchNorm2d(64, eps=0.0001, momentum=0.1, affine=True, track_running_stats=True)
    )
    (2): ConnectingLayer(
      (conv): Conv2d(64, 64, kernel_size=(1, 1), stride=(1, 1))
      (act): ReLU()
      (normLayer): BatchNorm2d(64, eps=0.0001, momentum=0.1, affine=True, track_running_stats=True)
    )
  )
  (open): ConnectingLayer(
    (conv): Conv2d(3, 16, kernel_size=(3, 3), stride=(1, 1), padding=(1, 1))
    (act): ReLU()
    (normLayer): BatchNorm2d(16, eps=0.0001, momentum=0.1, affine=True, track_running_stats=True)
  )
  (linear): Linear(in_features=64, out_features=10, bias=True)
)
